…
Namespace(Hnet='./training1211/checkPoints/H_epoch0799_sumloss0.000568_lr0.001000.pth', Rnet='./training1211/checkPoints/R_epoch0799_sumloss0.000568_lr0.001000.pt', beta=0.75, image_size=256, test_log='./test/testLog.txt', test_path='./hdr/test', test_pics='./test/resultPics')

prepare test dataset

test dataset has been prepared!

Mon Dec 14 20:53:25 2020

Namespace(Hnet='./training1211/checkPoints/H_epoch0799_sumloss0.000568_lr0.001000.pth', Rnet='./training1211/checkPoints/R_epoch0799_sumloss0.000568_lr0.001000.pt', beta=0.75, image_size=256, test_log='./test/testLog.txt', test_path='./hdr/test', test_pics='./test/resultPics')

prepare test dataset

test dataset has been prepared!

HNet(
  (layer1): Sequential(
    (0): Conv2d(6, 50, kernel_size=(2, 2), stride=(2, 2))
    (1): LeakyReLU(negative_slope=0.01, inplace=True)
  )
  (layer2): Sequential(
    (0): Conv2d(50, 100, kernel_size=(2, 2), stride=(2, 2))
    (1): BatchNorm2d(100, eps=1e-05, momentum=0.1, affine=True, track_running_stats=True)
    (2): LeakyReLU(negative_slope=0.01, inplace=True)
  )
  (layer3): Sequential(
    (0): Conv2d(100, 200, kernel_size=(2, 2), stride=(2, 2))
    (1): BatchNorm2d(200, eps=1e-05, momentum=0.1, affine=True, track_running_stats=True)
    (2): LeakyReLU(negative_slope=0.01, inplace=True)
  )
  (layer4): Sequential(
    (0): Conv2d(200, 400, kernel_size=(2, 2), stride=(2, 2))
    (1): BatchNorm2d(400, eps=1e-05, momentum=0.1, affine=True, track_running_stats=True)
    (2): LeakyReLU(negative_slope=0.01, inplace=True)
  )
  (layer5): Sequential(
    (0): Conv2d(400, 400, kernel_size=(2, 2), stride=(2, 2))
    (1): ReLU(inplace=True)
  )
  (layer6): Sequential(
    (0): ConvTranspose2d(400, 400, kernel_size=(2, 2), stride=(2, 2))
    (1): BatchNorm2d(400, eps=1e-05, momentum=0.1, affine=True, track_running_stats=True)
  )
  (layer7): Sequential(
    (0): ConvTranspose2d(800, 200, kernel_size=(2, 2), stride=(2, 2))
    (1): BatchNorm2d(200, eps=1e-05, momentum=0.1, affine=True, track_running_stats=True)
  )
  (layer8): Sequential(
    (0): ConvTranspose2d(400, 100, kernel_size=(2, 2), stride=(2, 2))
    (1): BatchNorm2d(100, eps=1e-05, momentum=0.1, affine=True, track_running_stats=True)
  )
  (layer9): Sequential(
    (0): ConvTranspose2d(200, 50, kernel_size=(2, 2), stride=(2, 2))
    (1): BatchNorm2d(50, eps=1e-05, momentum=0.1, affine=True, track_running_stats=True)
  )
  (layer10): Sequential(
    (0): ConvTranspose2d(100, 3, kernel_size=(2, 2), stride=(2, 2))
    (1): Sigmoid()
  )
  (relu): LeakyReLU(negative_slope=0.01, inplace=True)
)

Total number of parameters: 2547203

Mon Dec 14 20:54:45 2020

Namespace(Hnet='./training1211/checkPoints/H_epoch0799_sumloss0.000568_lr0.001000.pth', Rnet='./training1211/checkPoints/R_epoch0799_sumloss0.000568_lr0.001000.pth', beta=0.75, image_size=256, test_log='./test/testLog.txt', test_path='./hdr/test', test_pics='./test/resultPics')

prepare test dataset

test dataset has been prepared!

HNet(
  (layer1): Sequential(
    (0): Conv2d(6, 50, kernel_size=(2, 2), stride=(2, 2))
    (1): LeakyReLU(negative_slope=0.01, inplace=True)
  )
  (layer2): Sequential(
    (0): Conv2d(50, 100, kernel_size=(2, 2), stride=(2, 2))
    (1): BatchNorm2d(100, eps=1e-05, momentum=0.1, affine=True, track_running_stats=True)
    (2): LeakyReLU(negative_slope=0.01, inplace=True)
  )
  (layer3): Sequential(
    (0): Conv2d(100, 200, kernel_size=(2, 2), stride=(2, 2))
    (1): BatchNorm2d(200, eps=1e-05, momentum=0.1, affine=True, track_running_stats=True)
    (2): LeakyReLU(negative_slope=0.01, inplace=True)
  )
  (layer4): Sequential(
    (0): Conv2d(200, 400, kernel_size=(2, 2), stride=(2, 2))
    (1): BatchNorm2d(400, eps=1e-05, momentum=0.1, affine=True, track_running_stats=True)
    (2): LeakyReLU(negative_slope=0.01, inplace=True)
  )
  (layer5): Sequential(
    (0): Conv2d(400, 400, kernel_size=(2, 2), stride=(2, 2))
    (1): ReLU(inplace=True)
  )
  (layer6): Sequential(
    (0): ConvTranspose2d(400, 400, kernel_size=(2, 2), stride=(2, 2))
    (1): BatchNorm2d(400, eps=1e-05, momentum=0.1, affine=True, track_running_stats=True)
  )
  (layer7): Sequential(
    (0): ConvTranspose2d(800, 200, kernel_size=(2, 2), stride=(2, 2))
    (1): BatchNorm2d(200, eps=1e-05, momentum=0.1, affine=True, track_running_stats=True)
  )
  (layer8): Sequential(
    (0): ConvTranspose2d(400, 100, kernel_size=(2, 2), stride=(2, 2))
    (1): BatchNorm2d(100, eps=1e-05, momentum=0.1, affine=True, track_running_stats=True)
  )
  (layer9): Sequential(
    (0): ConvTranspose2d(200, 50, kernel_size=(2, 2), stride=(2, 2))
    (1): BatchNorm2d(50, eps=1e-05, momentum=0.1, affine=True, track_running_stats=True)
  )
  (layer10): Sequential(
    (0): ConvTranspose2d(100, 3, kernel_size=(2, 2), stride=(2, 2))
    (1): Sigmoid()
  )
  (relu): LeakyReLU(negative_slope=0.01, inplace=True)
)

Total number of parameters: 2547203

RNet(
  (main): Sequential(
    (0): Conv2d(3, 64, kernel_size=(3, 3), stride=(1, 1), padding=(1, 1))
    (1): BatchNorm2d(64, eps=1e-05, momentum=0.1, affine=True, track_running_stats=True)
    (2): ReLU(inplace=True)
    (3): Conv2d(64, 128, kernel_size=(3, 3), stride=(1, 1), padding=(1, 1))
    (4): BatchNorm2d(128, eps=1e-05, momentum=0.1, affine=True, track_running_stats=True)
    (5): ReLU(inplace=True)
    (6): Conv2d(128, 256, kernel_size=(3, 3), stride=(1, 1), padding=(1, 1))
    (7): BatchNorm2d(256, eps=1e-05, momentum=0.1, affine=True, track_running_stats=True)
    (8): ReLU(inplace=True)
    (9): Conv2d(256, 128, kernel_size=(3, 3), stride=(1, 1), padding=(1, 1))
    (10): BatchNorm2d(128, eps=1e-05, momentum=0.1, affine=True, track_running_stats=True)
    (11): ReLU(inplace=True)
    (12): Conv2d(128, 64, kernel_size=(3, 3), stride=(1, 1), padding=(1, 1))
    (13): BatchNorm2d(64, eps=1e-05, momentum=0.1, affine=True, track_running_stats=True)
    (14): ReLU(inplace=True)
    (15): Conv2d(64, 3, kernel_size=(3, 3), stride=(1, 1), padding=(1, 1))
    (16): Sigmoid()
  )
)

Total number of parameters: 742659

---------- test begin ---------

Mon Dec 14 20:57:22 2020

Namespace(Hnet='./training1211/checkPoints/H_epoch0799_sumloss0.000568_lr0.001000.pth', Rnet='./training1211/checkPoints/R_epoch0799_sumloss0.000568_lr0.001000.pth', beta=0.75, image_size=256, test_log='./test/testLog.txt', test_path='./hdr/test', test_pics='./test/resultPics')

prepare test dataset

test dataset has been prepared!

HNet(
  (layer1): Sequential(
    (0): Conv2d(6, 50, kernel_size=(2, 2), stride=(2, 2))
    (1): LeakyReLU(negative_slope=0.01, inplace=True)
  )
  (layer2): Sequential(
    (0): Conv2d(50, 100, kernel_size=(2, 2), stride=(2, 2))
    (1): BatchNorm2d(100, eps=1e-05, momentum=0.1, affine=True, track_running_stats=True)
    (2): LeakyReLU(negative_slope=0.01, inplace=True)
  )
  (layer3): Sequential(
    (0): Conv2d(100, 200, kernel_size=(2, 2), stride=(2, 2))
    (1): BatchNorm2d(200, eps=1e-05, momentum=0.1, affine=True, track_running_stats=True)
    (2): LeakyReLU(negative_slope=0.01, inplace=True)
  )
  (layer4): Sequential(
    (0): Conv2d(200, 400, kernel_size=(2, 2), stride=(2, 2))
    (1): BatchNorm2d(400, eps=1e-05, momentum=0.1, affine=True, track_running_stats=True)
    (2): LeakyReLU(negative_slope=0.01, inplace=True)
  )
  (layer5): Sequential(
    (0): Conv2d(400, 400, kernel_size=(2, 2), stride=(2, 2))
    (1): ReLU(inplace=True)
  )
  (layer6): Sequential(
    (0): ConvTranspose2d(400, 400, kernel_size=(2, 2), stride=(2, 2))
    (1): BatchNorm2d(400, eps=1e-05, momentum=0.1, affine=True, track_running_stats=True)
  )
  (layer7): Sequential(
    (0): ConvTranspose2d(800, 200, kernel_size=(2, 2), stride=(2, 2))
    (1): BatchNorm2d(200, eps=1e-05, momentum=0.1, affine=True, track_running_stats=True)
  )
  (layer8): Sequential(
    (0): ConvTranspose2d(400, 100, kernel_size=(2, 2), stride=(2, 2))
    (1): BatchNorm2d(100, eps=1e-05, momentum=0.1, affine=True, track_running_stats=True)
  )
  (layer9): Sequential(
    (0): ConvTranspose2d(200, 50, kernel_size=(2, 2), stride=(2, 2))
    (1): BatchNorm2d(50, eps=1e-05, momentum=0.1, affine=True, track_running_stats=True)
  )
  (layer10): Sequential(
    (0): ConvTranspose2d(100, 3, kernel_size=(2, 2), stride=(2, 2))
    (1): Sigmoid()
  )
  (relu): LeakyReLU(negative_slope=0.01, inplace=True)
)

Total number of parameters: 2547203

RNet(
  (main): Sequential(
    (0): Conv2d(3, 64, kernel_size=(3, 3), stride=(1, 1), padding=(1, 1))
    (1): BatchNorm2d(64, eps=1e-05, momentum=0.1, affine=True, track_running_stats=True)
    (2): ReLU(inplace=True)
    (3): Conv2d(64, 128, kernel_size=(3, 3), stride=(1, 1), padding=(1, 1))
    (4): BatchNorm2d(128, eps=1e-05, momentum=0.1, affine=True, track_running_stats=True)
    (5): ReLU(inplace=True)
    (6): Conv2d(128, 256, kernel_size=(3, 3), stride=(1, 1), padding=(1, 1))
    (7): BatchNorm2d(256, eps=1e-05, momentum=0.1, affine=True, track_running_stats=True)
    (8): ReLU(inplace=True)
    (9): Conv2d(256, 128, kernel_size=(3, 3), stride=(1, 1), padding=(1, 1))
    (10): BatchNorm2d(128, eps=1e-05, momentum=0.1, affine=True, track_running_stats=True)
    (11): ReLU(inplace=True)
    (12): Conv2d(128, 64, kernel_size=(3, 3), stride=(1, 1), padding=(1, 1))
    (13): BatchNorm2d(64, eps=1e-05, momentum=0.1, affine=True, track_running_stats=True)
    (14): ReLU(inplace=True)
    (15): Conv2d(64, 3, kernel_size=(3, 3), stride=(1, 1), padding=(1, 1))
    (16): Sigmoid()
  )
)

Total number of parameters: 742659

---------- test begin ---------

